ckpt/dqn.pt (torch, 100087 bytes, 6 tensors)

weight f4 [128, 54]
00000000: b8fd 8f3d 1b8c 10bd b288 41bd b543 243d
00000010: ab3d 06be e860 073e f93d ce3c 6ed4 fbbc
00000020: e5d7 063e d603 073e 20f1 fb3d 3102 44bc
00000030: 8ab9 cd3d cc7d a63d d7a5 d93d 62fe 5f3d
00000040: 0314 f33d 9f6a 3bbc 222b f63d 3eb6 7fbd
00000050: 9256 b3bd 9d6e c7bc 6b9f da3d 70a1 903c
00000060: 308e a1bd 5dbf 8a3d bf1e afbc e016 05be
00000070: b1c5 023c ecb1 e03d 5642 dabd e703 8b3d
00000080: 8edb 7a3d e96e 0d3d ec49 4bbd fd52 9dbd
00000090: 9ae8 febc 8337 64bc 18bc f5bd 7d1a 853d
000000a0: 2ba0 9b3d 0855 c1bd f04a cdbd 0eb9 003e
000000b0: a27d 93bd 80f9 cebd 3fb3 a0bd e0d1 e1bd
000000c0: 3bdb e73d 2ec6 5c3d 1729 9dbd 8188 6a3b
000000d0: f467 003e 2a10 3cbd 4154 ffbd 05d6 55bd
000000e0: 774e c8bc 9845 d2bc 22ba 60bd f9fc 8f3d
000000f0: c473 8abd 89ea 003c 57d0 04be c69e a3bc
00000100: 2793 a5bd 778e 5d3d 2b03 bebc 3e4b 44bd
00000110: 4538 ddbc affb d0bd 3640 5cbd 53d6 c93d
00000120: ff82 a2bd 2b2a 06be c697 35bd 3d09 38bb
00000130: 0de0 cf3d 6744 dbbd 2cc4 923d e817 d4bd
00000140: 15bc bebd 61ab e3bd 3845 04be 5671 413d
00000150: 9574 84bd 3b18 553c a30f ed3d 679f 7d3d
00000160: fb28 fa3d 69a2 0abe c691 fe3c e8cb f13d
00000170: ad48 73ba 169c ce3d 661c de3d acc1 033e
00000180: f8e8 7f3d 0c38 dcbd b7db 063e a627 40bd
00000190: 5842 f23d ca16 c13c d5d4 06be 527a 843d
000001a0: cb13 c0bd 62b9 75bd 83c3 e0bd ba73 c53d
000001b0: 54fc e4bd 9d2b bdbd 6366 09be d29d b53c
000001c0: 760c eb3d eefb d2bc 7bb7 8fbd 55b4 f43d
000001d0: a10c 01bc 6e7b 86bd 7585 b93d d1eb dc3d
000001e0: 5e6b d4bb 5dcc 033e 16c5 0b3e fcc5 9b3c
000001f0: ee53 e2bd b354 97ba f851 08be 1624 783d
00000200: 9f7e d83c 6cf0 043e ca25 173c 2169 e53d
00000210: bd3a fcbc 2299 8ebd 2134 de3b bf3a 6e3d
00000220: b59b 0abd 5be5 ccbc 8698 30bc 33f2 093c
00000230: e499 4cbb 8fd5 6e3d 3612 c03c 1660 b73c
00000240: d356 f33b e1f8 fdbd 86bd 4d3d a201 4a3d
00000250: 2d9c bf3d b12b 8dbd f8cd 28bc 057b 1ebc
00000260: b85f 6ebd 2864 cebd 97b6 02be 36a9 c5bc
00000270: 63a9 e23c 3b53 c13c 6a90 b8bd 5a3a ea3d
00000280: e150 d73d 8d20 ce3d 6157 e3bc 8fbb 453d
00000290: 7c63 da3c 4a6e d4bd 8de7 693d cefb 2dbd
000002a0: 5df2 933d 4cca 0abe 7872 e1bd d36b 953d
000002b0: 92cf 4bbd d4a9 053e 4ef9 cc3c 8e5d bcbd
000002c0: 0101 5e3d 9ca8 e0bd a4ed 65bb 25ec 023e
000002d0: f605 853d daaf 23bd c1ae 893d 9905 9abd
000002e0: a71c c5bc 6add 4dbd 67c2 d7bd 812b 65bd
000002f0: 377a 6d3d 7abe c0bd 6797 083e a0d5 a2bd
00000300: e8da a0bd e2aa 98bd d456 85bd 86be 0bbe
00000310: 0ff3 dabb 3d1c b23d 6459 3e3d 240b fcbd
00000320: 371d fa3d 7bec 08bd f317 28bd 5865 e23d
00000330: 74f3 a33c 71c1 e3bc 6d47 39bd fa78 c53d
00000340: 1f67 45bd ac31 c1bd 2efa 99bd 2cc6 30bd
00000350: 8acd 82bc 9843 9e3d 70be 49bd b399 06bd
00000360: 87e1 893d 58d9 07bd 2c4b 183d 321f bc3d
00000370: d477 503d a7a9 e3bd 92c4 a5bd 8378 0a3c
00000380: ce01 d5bd 8d43 66bd afbe 133d e8e9 8dbd
00000390: c690 00be 0f80 12bb a878 123d e752 85bb
000003a0: 872b b3bd 29c2 36bd a9bd d33d 6bad d9bd
000003b0: 0079 e5bd a0dd e43d 81ab 8d3d 829e e2bd
000003c0: 65ff d03c 71ef 1cbc 6907 c3bc a96d 43bd
000003d0: 1195 053e 5e86 a1bd 7636 f7bc 6224 c8bd
000003e0: cb36 1fbd 151b e83d 1b8f 063d 5f8e 28bc
000003f0: 323e 763d f545 93bd 2dba 633d 19ad c93d
0.07030815 -0.035289865 -0.047249503 0.040103633 -0.13109462 0.1322056 0.025176035 -0.030740943
0.13168295 0.13185057 0.1230185 -0.011963413 0.100451544 0.081294626 0.106273346 0.054685958
0.11869051 -0.011438995 0.12019946 -0.06242966 -0.08756746 -0.024344737 0.10674938 0.017655104
-0.07888448 0.06774781 -0.021376966 -0.12997007 0.007981704 0.10971436 -0.10657184 0.06787854
0.06124454 0.0345296 -0.049631044 -0.076818444 -0.031116772 -0.013929251 -0.11998767 0.06499193
0.07598909 -0.094400465 -0.10024059 0.12570593 -0.07201697 -0.10106182 -0.078466885 -0.110263586
0.11321112 0.053899936 -0.07673853 0.003578693 0.12539655 -0.045913853 -0.12467242 -0.052206058
-0.024451477 -0.02566795 -0.05486501 0.070306726 -0.06760362 0.007868418 -0.129701 -0.01997317
-0.08084708 0.054090943 -0.02319487 -0.04792332 -0.02700437 -0.10204255 -0.053772174 0.09855332
-0.07935142 -0.13102023 -0.044334196 -0.0028081678 0.10150156 -0.10706406 0.07166323 -0.10356122
-0.093132176 -0.11116672 -0.1291703 0.047227226 -0.06467549 0.013006265 0.11575248 0.061919596
0.12214848 -0.13538517 0.03107537 0.1180647 -0.0009280544 0.10088365 0.1084526 0.12866849
0.062478036 -0.107528776 0.13169752 -0.04691281 0.1182906 0.023570437 -0.13167126 0.06468643
-0.09378775 -0.059991248 -0.10974791 0.09641214 -0.1118094 -0.09236834 -0.13417964 0.022169981
0.11476986 -0.025754895 -0.07017418 0.11948458 -0.007876546 -0.06566511 0.09058658 0.10787166
-0.0064825257 0.12870927 0.13649401 0.019015305 -0.110511646 -0.0011545628 -0.13312519 0.06058129
0.026427565 0.12982339 0.009225318 0.112016924 -0.030789727 -0.069628015 0.0067811166 0.058161493
-0.0338399 -0.025011709 -0.010778552 0.008419561 -0.0031219656 0.058309134 0.023446184 0.022384685
0.0074261217 -0.124009855 0.05022957 0.049317963 0.0935596 -0.06893099 -0.010303013 -0.009672885
-0.058196753 -0.10077697 -0.12764965 -0.024128538 0.02766866 0.023599258 -0.0901192 0.11436911
0.10513473 0.10064802 -0.027751626 0.048274573 0.026658766 -0.103725985 0.05710559 -0.042476468
0.072239615 -0.13553733 -0.11008161 0.072959565 -0.0497585 0.13053066 0.025021221 -0.09197532
0.054200176 -0.1096966 -0.0035084272 0.12785394 0.064952776 -0.039962627 0.06722785 -0.07520599
-0.024061514 -0.050259985 -0.10535126 -0.05594969 0.05797788 -0.094113305 0.13339005 -0.07950902
-0.07854253 -0.07454468 -0.06510702 -0.13646898 -0.006681807 0.08696792 0.04647197 -0.123068124
0.122126035 -0.03342865 -0.041038465 0.11054486 0.020013548 -0.027802201 -0.045234133 0.09642215
-0.048194047 -0.09433302 -0.07518421 -0.04315774 -0.01596715 0.07727736 -0.04925388 -0.032861423
0.06732469 -0.03316626 0.037181064 0.091856375 0.050895527 -0.11116343 -0.080941334 0.008451584
-0.10400735 -0.056216765 0.036070522 -0.0692938 -0.12555227 -0.002235416 0.035759598 -0.0040687206
-0.087485366 -0.04461876 0.10338909 -0.1062878 -0.112047195 0.11175084 0.069174774 -0.11065389
0.025512407 -0.009578572 -0.023807244 -0.047712002 0.13045146 -0.07886957 -0.030177336 -0.097725645
-0.038870614 0.113332905 0.03285132 -0.01028785 0.060117908 -0.071910776 0.055597473 0.09847469

bias f4 [128]
00000000: 35bc 373d 8b38 803c 9f88 fbbd 2aa2 823d
00000010: 9152 913d b561 5f3a ff71 f6bd 21ba e23d
00000020: a672 e3bd f732 e13d c3bd e6bd a395 453c
00000030: 904e a4bd 0e83 3b3d 0bf0 bc3d 5bf7 8c3d
00000040: 1c09 a13d d33a e9bd 55df bd3d 4334 093e
00000050: 38ff e3bd b56a b13d 1b36 afbd 4120 de3b
00000060: a475 e43d 1255 7abd bfee c6bc f50f e73d
00000070: 7a66 8b3d e081 fb3d 4cc6 993d dcfd dbbc
00000080: 303b ddbd c7d7 02be e8ea 273d 4f8b 0abe
00000090: 8cc4 c0bd 426c 28bd 5f60 8b3d 71fc 05be
000000a0: fad7 b0bd c9ae b5bb bef9 823d 11e1 9c3c
000000b0: a6c4 09be 348b e9bd dedd f9bd 4130 b3bd
000000c0: 2446 1e3c a47b bb3d 02a2 eb3d c5aa 3c3d
000000d0: f1b4 1dbc 222c a6bd bb65 8abd 5341 edbd
000000e0: 38bb aabd 92a5 b2bd 83ce c5bc 1a45 893d
000000f0: de67 e13d 8ffe 8a3d bacf 823d abd2 d9bc
00000100: f886 83bd d745 8f3d b876 713d 6def 6bbd
00000110: 999b e2bd ddc9 04be b651 2f3d d240 eabd
00000120: f5da 63bd f58c 89bd 6e54 3b3c 2f92 6fbd
00000130: 6f70 893c 8d50 e53d 6451 8c3d 7a87 a0bd
00000140: dbd9 cfbd 8471 e6bd 2215 c7bd 5eae ffbd
00000150: f675 e7bd f35d 0e3d a8b6 c73d 6257 7d3d
00000160: 93b0 53bd 9f8b 4abb 48ac 88bd 83c1 1a3d
00000170: ce38 4e3d 12cf bc3c 34e6 a83d e529 733d
00000180: a487 09bd 5782 bd3d 0bfd b7bd f88b b3bd
00000190: 4edf ea3d 1750 153c 850a a23d 765b 0bbe
000001a0: 9716 a43d 3801 c6bd 3970 b5bd 4cca 0dbd
000001b0: e867 e03d 55ee c03c d4c0 02be 9ef9 a8bc
000001c0: 09de 17bd 8ed0 46bd 091b f0bd c4f0 d83d
000001d0: cfae 9fbd d8b6 8fbd 7279 023e 6921 c4bd
000001e0: 5a6b cdbd b8af e03d c18d f63a fb42 023e
000001f0: ba2a a2bd 1b3b 99bd 87e7 c039 b344 933d
0.044857223 0.015651962 -0.12281918 0.063785866 0.070958264 0.00085213344 -0.12033462 0.110706575
-0.11105852 0.10996049 -0.11266663 0.012059602 -0.08022797 0.04577928 0.09225472 0.06883117
0.078630656 -0.11388173 0.09271113 0.13398843 -0.111326635 0.08662931 -0.08555242 0.0067787473
0.11155251 -0.061116286 -0.024283765 0.112823404 0.06806655 0.12280631 0.07508525 -0.026854448
-0.10802305 -0.12777625 0.04099551 -0.13529705 -0.09412488 -0.041118868 0.06805491 -0.1308458
-0.08634944 -0.0055445177 0.06395291 0.019150289 -0.13453922 -0.11403504 -0.12200521 -0.08749438
0.0096602775 0.09154442 0.1150551 0.046061296 -0.009625659 -0.081138864 -0.06757685 -0.11584725
-0.083364904 -0.08722986 -0.024146324 0.06702633 0.11006139 0.067868344 0.06387277 -0.026589712
-0.064222276 0.06995743 0.05895111 -0.05760138 -0.11064834 -0.1296763 0.042802535 -0.11438145
-0.055628736 -0.067163385 0.011433704 -0.05848902 0.016777245 0.111970045 0.068514615 -0.0783834
-0.101489745 -0.1125212 -0.09720828 -0.1248443 -0.11301796 0.034757566 0.09751636 0.061850913
-0.051682066 -0.0030905975 -0.06673485 0.037782203 0.050347142 0.023047958 0.08247033 0.059366126
-0.033576623 0.09253376 -0.08983811 -0.08766931 0.11468373 0.009113333 0.07912163 -0.13609108
0.08012121 -0.09668201 -0.088592954 -0.034616753 0.109573185 0.023551146 -0.1276887 -0.02062684
-0.037076984 -0.048538737 -0.117239065 0.105927974 -0.07797014 -0.070172966 0.1274164 -0.09576685
-0.10030241 0.10971016 0.0018810557 0.12720864 -0.07918306 -0.074819766 0.00036793595 0.07190838

weight f4 [128, 128]
00000000: eab0 8e3d 1a42 28bd 5978 223d 3e55 9a3d
00000010: 36b6 433c 735c 38bd f907 be3c f419 913d
00000020: 49ec 113d be7b 183d 85dd a03d ae01 aebd
00000030: d100 263d 70d5 6cbd f4b3 5cbb c27f 58bd
00000040: 7b96 0dbd 8744 4abc 6b98 21bc 8d71 8e3d
00000050: fbfe 753b 4fed 97bd 847f 0fbd baf6 0dbd
00000060: d5b0 913c 2d81 49bc a5d4 923c fd97 ac3c
00000070: 76d8 ccbc 206c 7e3d 88e5 9e3d 34e9 3b3d
00000080: 71f1 e03c 1242 85bd 2d6c 84bd 0844 aebd
00000090: 29f4 4ebc 4029 903d c449 923d 78b7 17bc
000000a0: ee0e 743c add6 61bd 8609 47bd 0cac aabd
000000b0: 4bf8 5cbd 1a10 793d 37dd 56bd a22a b4bc
000000c0: 721f 0b3d ca1b 0d3d b0c9 a83d 45fd 51bd
000000d0: 5bfe a03d e769 ecbc 42c1 2ebd 3959 79bd
000000e0: da9c 873d 3674 e5bb ba89 613d 0253 493d
000000f0: b967 24bc 56e9 a53c 070e ad3b 1df0 8c3d
00000100: ce14 aa3c 8e22 0abd e3a2 abbd c70f 8b3d
00000110: b99e 50bd 20fb 9dbd b027 ad3d bd24 933d
00000120: d19b 05bd 96e0 83bd 98da f5bc 94ae 21bc
00000130: 866c 7e3c 3d30 233d 170a b33c 2003 ccbc
00000140: f31f 83bd 15f2 9bbb e97a 0f3d 5f05 7c3d
00000150: 7f2b 313c 724d b6bb 1d29 b5bd ca32 5c3d
00000160: f233 5abd 1797 42bd 9c3c 05bc c4f2 89bd
00000170: 5b48 e8bc b741 2c3c fc8a 86bd 38f1 f83c
00000180: ac6d 803d 6747 183c 53e8 32bb 4030 a7bd
00000190: b6ff 94bd caca cabb 7b8a cb3c 4a22 aabd
000001a0: 0b37 cc3c 8260 83bc 84de 133d 0361 13bd
000001b0: a95d abbd d583 35bd 13ee 5dbc 6fa0 88bd
000001c0: c070 2abd 8dc3 e3bc 6283 7fbd 9bb4 353d
000001d0: 059f 013d 1443 c63c 462b 05bc 673d e03b
000001e0: 782d 80bd 1000 4a3d 7b24 c8bb d958 b0bd
000001f0: b41a c5bc 9c3b c0bc e63f 8a3c 77a2 9bbc
00000200: be7a 3bbc e557 a2bd 9a38 af3b aab2 c1bc
00000210: 3f8d 8d39 167d 36bb 0e71 b2bd 3bb8 1d3d
00000220: 7641 49bd 296d 7c3c cf66 94b9 8dad 7cbd
00000230: dafb f13c e2ce 9dbc 1f44 983d 93b0 9dbd
00000240: 4910 89bb da3e 593d 5c5e 92bd 974d 15bd
00000250: 5604 a33d 978c 36bd af2d 9ebd 9092 cd3c
00000260: c8cd b3bd 0122 2dbd 8d57 77bd 89bc 4b3d
00000270: 080a 24bc 19ad 9ebd 7f0a 98bd 4d35 003d
00000280: 28dc 98bd 2d2a c4bb 5f91 0f3a 837f 583d
00000290: 0854 94bd 04e1 92bd d62b 1b3c b911 583d
000002a0: 0393 2d3d 18f7 6e3d 5095 6abd 8a8c a2bd
000002b0: 6079 acbd 668f 75bd e506 bebc 73b4 8c3c
000002c0: f8d6 9b3d fe85 a93c b0bd 38bc d959 093d
000002d0: a1d0 56bd 6878 acbd fafd 833d fc42 4e3d
000002e0: 0f9f 89bd d600 57bd 63f2 b23d 7134 063d
000002f0: 29d7 d8bb b10e 9dbd 195e 24bd 8890 173d
00000300: e80b 783d e0d5 de3c f879 b3bd 4cee 35bc
00000310: 63f7 90bd c434 d93c 1b8e 883d cdc0 b0bd
00000320: 2f66 b43d b51f c7bc 7bc2 02bd b5ad 823d
00000330: 4a57 70bd 7b05 35bc cb70 22bd 8e32 3a3c
00000340: d5b9 e23b e54b 3bbc 3832 02bd 4b68 793c
00000350: 2b43 b23c 677b bb3c 5083 9f3d a1f0 f0bc
00000360: 5eae 8e3d 10e2 903c 31d9 a4bc c6ef 6b3d
00000370: b189 34bb 73ca 62bd 9cb8 a6bd 7735 963d
00000380: 4e5d fabc 69d0 d2bc e294 423d c686 973d
00000390: 7b80 a0bd 9f31 753d cb0a 12bd ff5a 733d
000003a0: 7809 aabc 758b 403d 6b3f 5dbd 59c2 723c
000003b0: ae8b a6bd 1c9e 913c 29f7 813d 33df 34bd
000003c0: 8bbc 52bb 97d3 523d db44 95bd 6a72 79bd
000003d0: e4e0 3d3b a2f1 73bd 879a 9a3d 5a44 343d
000003e0: 7e9e b03d 92f4 353c 2188 373d 99f2 5e3c
000003f0: b644 393d b8a6 74bd 65b4 833d 901e b4bd
0.069673374 -0.041078664 0.039665554 0.0753579 0.011945298 -0.04501004 0.023197161 0.07085028
0.03562573 0.037227385 0.078547515 -0.08496414 0.040528122 -0.057820737 -0.0033676596 -0.052856214
-0.034567337 -0.01234544 -0.009862999 0.06955252 0.0037536013 -0.0741831 -0.035033718 -0.034659125
0.017784515 -0.012298864 0.017923662 0.021068567 -0.02500556 0.062114835 0.07758623 0.045876697
0.027458878 -0.065067425 -0.064659454 -0.0850907 -0.0126314545 0.07039118 0.07142976 -0.009260051
0.014896138 -0.05513637 -0.048593067 -0.083335966 -0.053947728 0.06080637 -0.05245706 -0.021992985
0.033965535 0.03445033 0.08241594 -0.051266927 0.078610145 -0.028859092 -0.042664774 -0.060876105
0.06621714 -0.007002379 0.055062987 0.049151428 -0.010034495 0.020252865 0.005281213 0.068817355
0.020761874 -0.03372436 -0.083806776 0.06790119 -0.05093262 -0.07713914 0.084548354 0.07184742
-0.0326193 -0.06439321 -0.03001146 -0.009868283 0.015528804 0.039840925 0.021855397 -0.024903834
-0.06402578 -0.004759083 0.035029326 0.06152856 0.010813593 -0.0055634314 -0.08845732 0.053759374
-0.053272195 -0.04750737 -0.008132126 -0.06735757 -0.028354814 0.0105137145 -0.06569478 0.03038846
0.06270918 0.009294367 -0.002729912 -0.081635 -0.072753355 -0.006188725 0.024846306 -0.08307321
0.02492859 -0.01603723 0.03610088 -0.03598119 -0.08367474 -0.044315178 -0.013545531 -0.06671225
-0.041611433 -0.027803207 -0.062381156 0.044361692 0.031645793 0.024201907 -0.008127993 0.006843257
-0.062586725 0.049316466 -0.0061078644 -0.08610696 -0.024060585 -0.023465924 0.016876172 -0.018998368
-0.011442838 -0.07926921 0.0053473236 -0.023644764 0.00026998852 -0.0027845553 -0.0871297 0.038505774
-0.049134694 0.015406885 -0.00028305358 -0.06168895 0.029539037 -0.019263688 0.07434868 -0.076996945
-0.0041828495 0.053038456 -0.07146904 -0.03645095 0.079598114 -0.04456767 -0.07723557 0.0250943
-0.08779484 -0.042268757 -0.06038623 0.049740348 -0.010012157 -0.077478595 -0.07423877 0.03130083
-0.074638665 -0.005986473 0.0005476679 0.05285598 -0.0724259 -0.071718246 0.0094709005 0.052751277
0.04237653 0.058341116 -0.0572713 -0.07936962 -0.08421588 -0.05995121 -0.023196647 0.017175889
0.076093614 0.020693775 -0.011275694 0.03353295 -0.052445058 -0.08421403 0.064449266 0.05035685
-0.06719791 -0.05249103 0.08737638 0.032764856 -0.006617446 -0.07668818 -0.0401288 0.03700307
0.06055823 0.027201593 -0.08763498 -0.011104178 -0.07078435 0.026514418 0.066677295 -0.08630524
0.088085525 -0.024307111 -0.031923752 0.06380788 -0.058676995 -0.01104867 -0.03965835 0.011364592
0.0069191256 -0.011431669 -0.031786174 0.015222619 0.021760544 0.022885991 0.07788718 -0.029411616
0.06966852 0.01768592 -0.020123096 0.057601713 -0.002754789 -0.055368852 -0.0814068 0.07334416
-0.03056207 -0.025734143 0.047505267 0.07398753 -0.07837006 0.059861775 -0.035654824 0.059412953
-0.020756468 0.047007997 -0.05401556 0.014816844 -0.081321105 0.017775588 0.0634597 -0.04415817
-0.0032155837 0.05147132 -0.07288524 -0.06090013 0.0028973157 -0.05955661 0.07549005 0.044010498
0.0862398 0.011105673 0.044807557 0.0136076445 0.045231543 -0.059729308 0.06430892 -0.08794892

bias f4 [128]
00000000: 5543 12bd e2fd 6dbc 59e2 c13c cb16 acbc
00000010: 6bca 97bc cdc8 0c3d 3d12 fa3c a5ba dfbc
00000020: c8e0 cebc 31c7 5abd 1a12 69bc 7645 7abd
00000030: a110 983d 1241 b93b ca7e 3d3d 85c6 333d
00000040: 5ef4 41bd 6721 823d 3a82 53bd 7884 273d
00000050: 8bb2 133c 2357 0dbc df91 633d 3fca 1cbc
00000060: 6e8b 31bb e99d 463c 98d1 033b d5c2 903d
00000070: e409 ad3d 1fc3 75bd e689 a5bd 96cd 853d
00000080: 05ca 3abd a437 2c3d 6d0d 663d bd93 ef3c
00000090: 9774 923d 5f15 23bc dfff 8bbd 13ee a3bd
000000a0: b599 afbd f57b 6bbd 3e6e ec3b 1652 98bd
000000b0: 7f7f 5ebc 3085 363d f404 9cbd db06 d63b
000000c0: ccd1 9dbd 3f8e 83bd 4436 a73d 8649 08bd
000000d0: 0f3a fcbc e063 a7bd d4ba ad3c 6af8 de3c
000000e0: 5ad7 a43d 11f4 563d 608d a3bd 10c8 37ba
000000f0: e986 aebd 45eb 303d 7d97 76bb 8890 b3bc
00000100: 4207 693d b896 c0bc 1aaa 1e3d 7285 943d
00000110: cff7 0dbb e531 87bc 6465 2b3d 0987 3c3c
00000120: 5154 a73d 1b98 9ebc 0fe6 bc3b 96a7 9e3d
00000130: 7bec 00bd 156b 5bbc 9b72 88bd 3ad3 e53c
00000140: ddc8 9bbd 148b c8bc 2a17 503d 058c 903c
00000150: 369b 293d 85e1 82bd 7cc0 2f3d f0fe a8bd
00000160: 6a05 2c3c bf2f febb ed21 903c ae27 b1bd
00000170: a502 aa3d f66b ee3c 4958 803d a60d 753d
00000180: 701c 153d 7141 8c3c 40d5 86bd ea2b a4bb
00000190: ae32 b2bd 6f9c adbd 9ba7 8bbd efdc a4bd
000001a0: 2db4 973d 16db 213d 4b74 0f3d 68ad af3d
000001b0: 8915 69bd 571e afbc c6ee c3bc a8d6 adbc
000001c0: 4c6e ac3c fc00 943d edca 57bd 1fdb 863d
000001d0: ba1d 11bd d131 6cbd 3d26 f0bb 4ab0 e1bc
000001e0: 51e4 743d 539b 1abc 3f4e 5abd e759 c43c
000001f0: 5678 b23d 1e71 2abd 62cb aa3d 148e c83c
-0.035708744 -0.014525862 0.023667501 -0.021006962 -0.018529138 0.034371186 0.030526275 -0.027310679
-0.025253668 -0.05341262 -0.014225507 -0.0611014 0.07425047 0.005653509 0.046263494 0.043890495
-0.047352187 0.06354027 -0.051637866 0.040897816 0.009014736 -0.008626732 0.055559035 -0.009569704
-0.0027091163 0.01212261 0.0020113941 0.07068411 0.08449152 -0.060000535 -0.08082943 0.06533353
-0.045602817 0.04204525 0.056165148 0.029245252 0.07151144 -0.009953826 -0.06835913 -0.080043934
-0.08574239 -0.05749126 0.0072152903 -0.07437532 -0.013580202 0.04456061 -0.07618132 0.006531579
-0.07706031 -0.06423616 0.08164647 -0.033273242 -0.030789403 -0.081733465 0.02120725 0.027218062
0.080488876 0.052478854 -0.079859495 -0.00070107076 -0.08521826 0.04319312 -0.0037626915 -0.021919504
0.056891687 -0.023509368 0.03873644 0.07252015 -0.0021662598 -0.016503284 0.04184474 0.011506804
0.08170379 -0.019359639 0.00576473 0.07746808 -0.031475525 -0.01339223 -0.06662484 0.028054822
-0.07606671 -0.02448038 0.05080334 0.017644892 0.041407786 -0.06390671 0.042908177 -0.082517505
0.010499338 -0.0077571566 0.017594302 -0.086501464 0.08301286 0.029104214 0.06266839 0.05982747
0.036404073 0.017121049 -0.06583643 -0.005010118 -0.08701073 -0.08477103 -0.068190776 -0.08049952
0.07407413 0.039515577 0.035023015 0.085779965 -0.056905303 -0.021376772 -0.023917567 -0.02122052
0.021048687 0.0722675 -0.05268376 0.06584763 -0.03542874 -0.057664696 -0.007328777 -0.027549881
0.059788052 -0.009436446 -0.053297278 0.02396865 0.087143585 -0.041611783 0.083395734 0.02448181

weight f4 [5, 128]
00000000: 574a b2bd 8d36 4d3d 7b63 fa3c 7e8a 673d
00000010: 86a5 893c 5e5e adbd 7f16 953d 4241 fb3b
00000020: 604e 8dbd b410 173d 05e2 853d 6c0f 963d
00000030: ef7f 923d c291 0abc 0c5e 2dbc 2331 dbba
00000040: 015f 873d dfad 733d fd6b e73c 1634 b9ba
00000050: a6e5 cd3c 720c 833b 8380 8b3d bee6 c23c
00000060: e917 a13d 0d87 51bd afd9 b3bb 8a8d 39bb
00000070: e96c c33a 2f0d 84bd d92f 0a3d 3537 373d
00000080: dd01 68bd 1612 933d 55d5 81bd 7e79 363d
00000090: 5bfc 3dbd eaef 7bbd 6eba bd3c cbfc 4fbd
000000a0: 97de 34bd eaa9 543d 63de 4ebd 5fd9 2e3d
000000b0: d609 84bc 3a24 92bd f245 73bc 64fb 673d
000000c0: b5d4 f73c 4911 093d 4ed4 873d ecf9 e53b
000000d0: cd11 b2bd b8f8 f9bc d4b9 a1bc 7e64 c33c
000000e0: a190 af3d c656 91bd 2dc2 40bd 57c6 6fbd
000000f0: bd3f 6abd abf9 17bd a68a 1d3d ab46 f43c
00000100: fb1d a53d 95a9 873d 030a dd3c 246b c8bc
00000110: 5aa9 00bd 0dc7 34bd e565 90bd 27db 3fbd
00000120: d91c adbd 755b b83a 3382 acbc 1a59 533c
00000130: 7ea3 1f3d 1935 a83d 8e74 6ebd 2336 113c
00000140: 0c4d f43c 20d4 553d 59bc 3b3d 8f74 3f3c
00000150: dfe9 b5bd ff28 72bd a007 9c3c 08f0 8bbb
00000160: 64d8 e83c 6079 ebbc df59 e73c c138 ad3c
00000170: 2b64 95bc ee50 9a3d 7284 4abb 9f0b 8ebc
00000180: 763f 603c 66d5 963d 12b5 833d d1ab 713d
00000190: e506 0cbd a9c1 14bd 3b8f ee3c 8b12 08bd
000001a0: 71ef 723d 30e5 fcbc 44dc 5cbc 1702 ac3d
000001b0: 93dc 053c 47af 19bd ea2b 953d ed88 4d3d
000001c0: 3e0b 963d 70e4 a5bc 7482 25bd 7dc7 72bd
000001d0: efb0 24bd ad7e 7c3c fe21 7ebd 3d8f a1bd
000001e0: b6c5 e13c ef20 493b 3060 13bd efa7 a73d
000001f0: 5f0a aabd f490 79bd 727e e1bc d85c 2d3d
00000200: 4fa9 09bd a5a4 33bd c885 4ebd 411b 323c
00000210: eff4 d33c f790 e63c 912a 89bd c723 aebd
00000220: aec3 75bc e6a1 783d fd0f 2cbd c9e4 78bc
00000230: dcb6 dc3c f412 ad3d f447 26bd c7d5 0ebc
00000240: e484 81bd 58f5 003d 19c5 3ebd a387 b23d
00000250: 2b5a c7bc d830 363a 8c04 713c 4e29 a43d
00000260: 2bd3 28bb ee5c ac3d ee19 f23c 8591 06bd
00000270: f6d9 723b c073 96bc 952a ec3c 49a5 113c
00000280: c7c6 2fbd b026 d03c 0eed 7abd 4bfc a53d
00000290: 3e22 e93c 6010 8abd c617 94bd 461c 303c
000002a0: 1ebe 9c3c bf76 13bb aabb 59bc c156 a4bd
000002b0: d99f b9bc 5a99 9cbc 58ad 1a3d 659a f63c
000002c0: 8ae3 95bd 7d9e ffbc 93aa c53c 3850 11bc
000002d0: 1e17 133d 5bd9 03bd e984 e23c d0f6 853d
000002e0: 374b 99bd 9cf5 533d 2345 a0bd 1b4f 2c3c
000002f0: 4234 b23d 1478 783c 02b7 34bd bad6 b1bd
00000300: 1426 423b fb68 203d b778 803d a50e e9bc
00000310: d68a 4dbd c336 bd3c b26e 79b8 77e1 1c3d
00000320: 9468 84bd 5396 9c3d 3273 2bbd 4b67 293c
00000330: bc8d 463c c7d2 9cbc 3d12 bdbb 5a0b 4f3d
00000340: be1b b0bd 4330 e73c f75a 083d f46f 9c3d
00000350: 27fc b0bc 4c86 98bc 3743 0abd f00a b33d
00000360: e405 2d3d 8b92 8a3d e56c 3a3d a073 583d
00000370: a31e 60bd 1d34 bd3c 151e 98bc 39ca 8b3d
00000380: 7618 963d f079 523d 7841 d9b6 c5b0 71bc
00000390: 8940 9abc 28f0 87bd 5bdb 35bd 8cb4 2bbd
000003a0: dfc7 05bd 653d c23c 965f 13bd afef 023d
000003b0: 05ff 52bc 6c28 833d 71db c93c 88ea 10bd
000003c0: f0cd 0abd 2b23 8abd 9c99 253d c222 69bd
000003d0: 34a6 8ebd 4883 acbd 3589 8fbd cc55 04bc
000003e0: 7db7 97bd 1ebf 2cbc dea3 9d3c 8c4e 7c3d
000003f0: b650 cfbc 2651 8b3d a9bc 3d3d bcef f53c
-0.087055854 0.05010085 0.030565014 0.05652856 0.01680256 -0.08465265 0.072796814 0.0076676914
-0.068997145 0.036881164 0.065372504 0.0732716 0.07153308 -0.008457603 -0.010581505 -0.0016723018
0.066099174 0.05949199 0.028249735 -0.0014129903 0.025133919 0.0039992863 0.06811621 0.023791667
0.078658886 -0.051154185 -0.0054885964 -0.0028313124 0.0014909777 -0.06447827 0.033737037 0.044730384
-0.056642402 0.07181184 -0.06339518 0.044549458 -0.046383243 -0.061508097 0.023160186 -0.05077819
-0.04415759 0.051919855 -0.050505053 0.04268777 -0.016117971 -0.07135816 -0.014848219 0.05663623
0.030252794 0.03346375 0.06632291 0.0070183184 -0.086948015 -0.030514106 -0.01974193 0.02385163
0.08572508 -0.07096629 -0.04706018 -0.05853876 -0.05718969 -0.037103336 0.038462304 0.029818853
0.08062359 0.06624142 0.026982313 -0.024465151 -0.031411506 -0.044135142 -0.07050685 -0.04683986
-0.08452768 0.0014065342 -0.021058178 0.012899661 0.038974278 0.082132526 -0.058216624 0.008863005
0.029821895 0.05220425 0.04583392 0.011685505 -0.08882498 -0.05912113 0.019046605 -0.0042705573
0.028423496 -0.0287444 0.028241096 0.021145226 -0.01823624 0.07534967 -0.0030901697 -0.017339526
0.013687005 0.07364921 0.06431021 0.059001748 -0.034186263 -0.0363175 0.029121032 -0.03322081
0.05931038 -0.030871004 -0.01348025 0.08398836 0.008170265 -0.037520673 0.072837666 0.05017941
0.07326363 -0.020250529 -0.040407613 -0.059272278 -0.0402078 0.015411061 -0.062044136 -0.07888649
0.027560096 0.0030689796 -0.035980403 0.08186328 -0.083027594 -0.060929254 -0.027526114 0.04232487
-0.03360873 -0.04385819 -0.050420552 0.010870756 0.02587363 0.028145296 -0.06697572 -0.08502918
-0.015000267 0.060701273 -0.042007435 -0.015191265 0.026942663 0.08450881 -0.040595964 -0.008717961
-0.06324175 0.031483978 -0.046574686 0.08717277 -0.024334988 0.00069500273 0.014710557 0.08015691
-0.0025760632 0.084161624 0.02955338 -0.032853622 0.0037056184 -0.01836574 0.028828898 0.008889505
-0.04291418 0.025409073 -0.06126123 0.08104762 0.02845871 -0.067414045 -0.07231097 0.010748928
0.019133624 -0.0022501198 -0.0132893715 -0.080243595 -0.02265923 -0.019116092 0.03776297 0.030102918
-0.0731879 -0.031203503 0.024129188 -0.008869223 0.03591072 -0.03218971 0.027651267 0.065412164
-0.07485049 0.051747903 -0.07825687 0.010516907 0.08701374 0.015165348 -0.044119842 -0.08683534
0.0029624747 0.039162617 0.062730245 -0.028449366 -0.050181232 0.023097401 -5.946932e-05 0.038300958
-0.06465259 0.076458596 -0.041857906 0.010339568 0.012118753 -0.019143475 -0.0057699964 0.050547935
-0.085990414 0.028221255 0.033289876 0.07638541 -0.02160461 -0.018618725 -0.033755507 0.087423205
0.042241946 0.06766232 0.045514006 0.052844644 -0.054716717 0.023096139 -0.018569032 0.0682568
0.07328884 0.05138582 -6.4747255e-06 -0.014751618 -0.0188296 -0.06637603 -0.044398647 -0.04192023
-0.032661315 0.023710916 -0.03597983 0.03196686 -0.012878184 0.06404194 0.02464077 -0.035379916
-0.033887804 -0.06744989 0.040429696 -0.056917913 -0.069652945 -0.084234774 -0.07008592 -0.008077096
-0.074080445 -0.010543613 0.019243177 0.061598346 -0.02530704 0.06802587 0.0463225 0.03002154

bias f4 [5]
00000000: 6167 31bc d576 8c3d 415e c63b 052c a1bd
00000010: 8bae a73d
-0.01082787 0.06858603 0.0060537164 -0.07869724 0.08187588
